data.pth (torch, 13975 bytes, 6 tensors)

l1.weight f4 [8, 214]
000000 cc 8f 23 3f 01 99 11 3f d9 5a c1 3e 76 23 25 3f
       0.6389129 0.5687409 0.37764624 0.64507234
000010 0f e3 e7 bd 36 30 50 be ad c1 3e 3f 38 e3 1d 3f
       -0.11322605 -0.20330891 0.74514276 0.61674833
000020 e5 85 dc be 90 07 e0 bd 1c 72 c8 be 38 0b 33 be
       -0.43070903 -0.109389424 -0.3914956 -0.17484748
000030 3a 04 aa be 51 26 ef bd 31 6f 90 3e 14 cb a7 be
       -0.3320635 -0.1167723 0.28209832 -0.32772124
000040 cc d0 0f 3f 9c ed 31 3f 91 e8 44 3f 91 0f 0d 3f
       0.56177974 0.6950319 0.7691737 0.5510188
000050 13 d7 d5 b9 1f 40 1f bb 44 13 9b bd b1 f8 46 bf
       -0.0004078677 -0.0024299694 -0.07572034 -0.7772322
000060 2d a4 ef 3e 0e 9a ab 3e 64 de 1e be 6e a9 c6 be
       0.46804944 0.33515972 -0.15514523 -0.3880114
000070 d5 b4 da bd 8e bb 56 be a7 1f d8 3e d6 8a 68 be
       -0.10679022 -0.20969984 0.4221165 -0.22709212
000080 f6 e2 32 be c7 48 a7 be 21 4f f8 be 9a e8 06 be
       -0.17469391 -0.32672712 -0.4849787 -0.13174668
000090 0d 04 55 3f 23 b6 3b 3f 8d 61 ca 3e a0 32 36 be
       0.83209306 0.73324794 0.3952755 -0.1779275
0000a0 f0 0a 47 bf 65 57 27 3f 98 2b 8d 3e 77 22 5f bd
       -0.77751064 0.6536773 0.27572322 -0.054476228
0000b0 36 33 29 3f b1 82 a8 be 6e 4d b5 3b 82 ef ed 3e
       0.66093767 -0.3291221 0.005532912 0.46471792
0000c0 89 ca ee bd c0 c9 0a 3f cd 88 60 3d 4e 13 80 be
       -0.11659724 0.54214096 0.054817963 -0.25014728
0000d0 19 2d 07 3f 72 f7 c8 3e c0 ad 25 be a9 0f 90 bd
       0.5280319 0.39251286 -0.16179562 -0.07034237
0000e0 b5 75 33 3f 09 60 c5 bd a6 7a 31 3f 21 b8 c4 be
       0.7010148 -0.09637458 0.6932777 -0.3842173
0000f0 74 d0 c5 3c 64 f7 38 3f e8 5f 20 be 9e 3e bc 3e
       0.02414725 0.7225249 -0.15661585 0.36766523
000100 9d 8e 4f be a0 14 37 3f 49 d6 a3 be c2 c8 c4 be
       -0.20269246 0.71515846 -0.31999424 -0.38434416
000110 37 fe eb bd 18 42 de 3e 68 dc 57 be 89 15 22 3e
       -0.11523097 0.434098 -0.21080172 0.15828528
000120 d3 37 b4 be cd a5 d8 3e 52 78 c1 bb 19 77 24 be
       -0.3519884 0.42313996 -0.005904236 -0.16061057
000130 0c 4f c1 bd c1 c9 94 3d 50 06 23 3f fb 75 36 bd
       -0.09438905 0.07265044 0.6368151 -0.04454611
000140 d7 78 2a bf 1f 46 1e be 6d 39 06 bf 8b 78 30 be
       -0.66590637 -0.15456437 -0.52431375 -0.17233483
000150 67 f3 f7 be 5f 6c 11 be b8 2c 09 3f cb b1 a0 be
       -0.4842789 -0.14201497 0.5358386 -0.31385645
000160 fa 7b d7 be ca 2f fa 3e ca ce c4 be 7c ad c7 be
       -0.42086774 0.48864585 -0.38439018 -0.38999546
000170 52 d9 85 bd 1e 42 27 bf 01 e6 dc 3e 62 a3 aa be
       -0.06535591 -0.6533526 0.4314423 -0.33327776
000180 cd e0 c6 be 78 df b2 3e af c0 df bd 13 06 0a bf
       -0.38843384 0.34936118 -0.10925423 -0.5391552
000190 5f 71 ba 3e be fa 36 3e 55 8c f0 be 93 5d 86 bc
       0.3641462 0.17869088 -0.46982065 -0.016402042
0001a0 4a 47 16 3e 40 8e 13 be 6a 0b a8 be 69 20 2d 3d
       0.14675632 -0.14409733 -0.32821208 0.042267237
0001b0 5f e2 1e bf 18 0d 0f 3f 0e 8e e7 be 60 ce 79 be
       -0.62064165 0.55879354 -0.45225567 -0.24395132
0001c0 3d 6d 11 3e db e8 a6 bd ce ae cb 3e 4b 71 be 3e
       0.14201827 -0.081498824 0.39781803 0.3719581
0001d0 c4 c0 80 bd e7 a9 26 3f 80 9f c6 3e ba 2e 00 3f
       -0.06286767 0.65103 0.38793564 0.500713
0001e0 b6 12 ca 3e 10 ea d9 be e6 4b 64 be ae 63 88 be
       0.394674 -0.42561388 -0.22294578 -0.2663855
0001f0 8b 83 30 3e 3d 15 13 be f4 03 b9 3e 49 02 be be
       0.1723768 -0.1436357 0.36135828 -0.37111118
000200 65 58 4a 3e e7 65 6e 3e 55 dc f5 3e 21 09 4b be
       0.19760282 0.2328106 0.48019662 -0.19827701
000210 67 08 36 3f 62 e3 e9 3e 87 0c 01 3f d4 29 7a be
       0.7110657 0.45681292 0.5040974 -0.24430019
000220 00 26 37 3f d0 2b ee 3e a9 17 dc be 9c 04 0d 3f
       0.7154236 0.465178 -0.429868 0.5508516
000230 bd fe 0a 3f fe fe 1c 3f 32 38 17 3f 20 13 b8 be
       0.5429495 0.6132659 0.5907012 -0.3595209
000240 a4 8a 07 bf c7 05 64 3e f8 81 9d 3e 37 61 02 3f
       -0.52945924 0.22267829 0.3076322 0.5092959
000250 4f fd a8 bc 7f e7 91 bd 2e cb bf 3e c4 d6 50 be
       -0.0206286 -0.071242325 0.374597 -0.20394427
000260 02 8e 93 bb bc e7 27 be 1f cc 4c 3f d7 e8 b1 be
       -0.0045030126 -0.16396993 0.79998964 -0.34747955
000270 b9 1a 6b 3e 22 9e 28 3f ca 89 4a be f4 84 7a bd
       0.22959413 0.6586629 -0.19779125 -0.06116195
000280 79 7c b3 3e 39 60 c9 be bc 05 53 3d 72 f0 c0 be
       0.35055903 -0.39331225 0.05151914 -0.37683445
000290 ff 39 c9 be 3b 3d 1a bf 9e 6b e3 be 7f 90 96 3e
       -0.3930206 -0.6024968 -0.44418043 0.29407117
0002a0 e0 9b bf 3e a2 4c 3d 3f 34 f5 cf be a0 01 c4 3e
       0.3742361 0.7394506 -0.40616763 0.3828249
0002b0 24 06 90 3e ae 68 6e bc c7 b8 e2 3e 0a 99 bf be
       0.28129685 -0.014551325 0.442816 -0.37421447
0002c0 e0 2f fd 3e 69 e8 2f 3e 55 4f f2 3d 01 be 5c 3e
       0.49450588 0.17178501 0.11831538 0.21556856
0002d0 ac 08 48 3e 9c 89 09 be ce 93 da bd 2d 08 fc 3e
       0.19534558 -0.134314 -0.10672723 0.49224988
0002e0 a7 d7 fe 3e 60 37 d2 3e cc 6c 48 be cb e3 68 be
       0.49773905 0.41057873 -0.19572753 -0.22743146
0002f0 ab bd 9a 3f 42 d4 03 3f 7f 32 02 3f 24 2a 18 be
       1.2089132 0.51495755 0.508583 -0.14859825
000300 27 5e c1 3c ce 94 48 be 7f f2 3e 3f 35 2a 4c bd
       0.023604466 -0.19588014 0.7458877 -0.04984494
000310 e7 54 79 3e 2b af 4c 3f 6d 9b dd 3e 02 58 2a 3e
       0.24348794 0.79954785 0.43282643 0.16635135
000320 49 6d cc bd de be 7f be 9a 18 3a be 72 2a 94 be
       -0.09981782 -0.24975154 -0.18173447 -0.28938633
000330 76 08 88 bc a1 f5 fd 3e a7 b7 fd be cd 0b c3 be
       -0.016605597 0.49601462 -0.49554178 -0.3809494
000340 d6 1f 1b bf 3b c1 8c 3c 35 17 0d 3e bd 4c f2 3e
       -0.6059545 0.017181983 0.13778384 0.47324172
000350 c5 90 b4 3e 87 c7 b3 3e 04 ce ca be b5 07 62 3e
       0.352667 0.35113165 -0.39610302 0.22073252
000360 ac 0c dc bc 6f 03 42 3d 50 fb 25 3f 6b ea 16 be
       -0.026861511 0.047366556 0.648366 -0.14737861
000370 71 0c b0 3e d4 57 cf 3c 53 09 5f 3e f6 d0 57 be
       0.34384492 0.025310434 0.217809 -0.21075806
000380 76 44 3f be d9 1c 4c be 11 f5 da bc 15 de f7 3e
       -0.1867846 -0.1993288 -0.026728185 0.48411623
000390 af f3 23 3f 8e f6 11 3f f6 f7 02 be f0 32 e1 3e
       0.64043707 0.5701684 -0.12789902 0.43984175
0003a0 2f 48 4e 3b 74 95 4d be b8 ba f1 3e 5f 40 54 be
       0.003147613 -0.20076543 0.47212768 -0.2072768
0003b0 be 7a 85 be 15 e6 4b bd 13 1a 19 be 51 dc be 3e
       -0.26070207 -0.04977997 -0.14951353 0.37277463
0003c0 7b 47 4d be 4e f3 0b be 7f 4b a3 be 0a 80 49 be
       -0.20046799 -0.13667032 -0.31893536 -0.1967775
0003d0 ef 7d 2a 3c d3 6f 0d be 0c c8 69 bd 94 a9 7d be
       0.0104060015 -0.13812189 -0.057075545 -0.2477172
0003e0 9e 2c 6a 3f 0d 41 7d bd 86 35 96 be 7e 0b 9a 3e
       0.9147433 -0.061829615 -0.2933771 0.30086893
0003f0 31 73 dd 3d dd 5c e9 bd eb e5 45 bd b8 58 b7 be
       0.10812987 -0.113946654 -0.04831497 -0.35809875

l1.bias f4 [8]
000000 8b 4b f8 3e 29 f7 89 3f 5b 2f b9 3e 8f cd 70 bd
       0.48495135 1.0778552 0.36168942 -0.058789786
000010 3d fc 81 3f 6f 1f b1 3f 2e e8 36 3f 9a d0 e5 3e
       1.0155102 1.3837718 0.7144803 0.44885713

l2.weight f4 [8, 8]
000000 7c 2b 91 3e cc 7c 90 3f c6 b8 7e bf 42 9c 1b 3e
       0.28353488 1.1288085 -0.9950069 0.15196326
000010 16 88 d8 3e 08 f4 ac be 50 0e 92 3f 04 9d 37 3f
       0.42291325 -0.3377993 1.1410618 0.7172396
000020 6a d8 0e 3f fa 39 b6 3f 9b 25 36 bf 47 54 23 3e
       0.5579897 1.4236443 -0.7115113 0.15950118
000030 52 5d bf be 8a 3d c1 3f 8e 98 10 3f 58 27 fd be
       -0.37375885 1.5096905 0.5648278 -0.4944408
000040 f5 1c a1 3f 44 62 a8 bf 7c 96 0a bf fa 40 4e 3e
       1.2586962 -1.3154988 -0.5413587 0.20141974
000050 ab d7 ab 3f 3d 85 3d 3f 63 69 a2 bf 86 aa 85 3f
       1.3425192 0.7403143 -1.2688411 1.0442665
000060 34 c4 3b 3d 00 64 c9 3e 18 ed 9a bf e9 9d 0e 3d
       0.04584141 0.39334106 -1.2103605 0.034818564
000070 eb 58 56 3f 2f e8 79 3f 8d 67 a9 3f 2d 3e 5e bf
       0.8372943 0.9761991 1.3234726 -0.8681362
000080 c2 79 92 bf 81 b2 0a 3f 55 eb 65 3f 37 bb 1e 3e
       -1.1443408 0.54178625 0.89812213 0.15501104
000090 5b f9 cd 3f d1 90 8d 3f 9d b9 f8 be dc 55 ae 3e
       1.6091722 1.105982 -0.48579112 0.3404988
0000a0 31 41 3f 3d 39 91 c0 3e cb 8e 62 3e e0 00 5c bd
       0.04669303 0.37610796 0.22124784 -0.053711772
0000b0 a0 12 7e 3f 12 48 4f bf 97 54 2c 3f e6 67 8b 3f
       0.9924717 -0.80969346 0.67316574 1.0891082
0000c0 90 58 8c 3e 25 b1 40 bf 36 c6 76 3f 73 ad ab be
       0.27411318 -0.752703 0.96396196 -0.3353077
0000d0 7a 2c 56 be 36 6e 63 3f 66 cd 97 3f 7d 6a b1 be
       -0.20915404 0.88840044 1.1859558 -0.34651557
0000e0 fc cf 9a 3f 99 a4 77 bc 5a e2 ae 3f 79 73 a4 3e
       1.2094722 -0.015114927 1.3662827 0.3211935
0000f0 8d d3 66 bf 44 55 8a 3f e5 44 05 3e 9c 74 38 3f
       -0.9016655 1.0807271 0.13014562 0.7205293

l2.bias f4 [8]
000000 07 74 50 bf cf f6 24 3f 56 7c 0c 3f 12 60 7d 3f
       -0.81427044 0.644391 0.5487722 0.98974717
000010 7d 16 72 3f e6 60 27 be 11 ec a4 be 7f 3c 5a 3d
       0.94565564 -0.16345558 -0.32211354 0.05328035

l3.weight f4 [42, 8]
000000 85 5a e4 3d 18 6b 21 3e 1a 2b 0a c0 d4 4b 6d 3f
       0.11150078 0.1576351 -2.1588807 0.9269383
000010 b8 3e d9 3e 4f 80 f7 bd 31 5c 8d bf ba 00 25 c0
       0.42430663 -0.1208502 -1.104376 -2.5781693
000020 8d 63 57 bf c4 71 57 3f ce 23 5f bf a2 05 34 3f
       -0.8413628 0.8415797 -0.8716401 0.70321095
000030 b3 aa 65 3f ee e9 0a c0 06 7c db bf 69 c7 7a bf
       0.8971359 -2.170528 -1.7147224 -0.97960526
000040 b7 7a af 3b a7 e2 5b be 51 72 c0 bf 48 6f ec 3e
       0.005355205 -0.2147318 -1.5034887 0.4617865
000050 6b 80 90 be ee 7d 8f be b7 c4 db 3e d5 92 99 bf
       -0.28222975 -0.28025764 0.4292352 -1.1997935
000060 25 96 25 bf 28 dc 28 be 32 83 c7 3e 16 ed 8c 3e
       -0.6468223 -0.16490233 0.38967282 0.27524632
000070 7a ca 89 3e 49 3f f3 be 19 18 a4 be 5d e4 fc bf
       0.2691229 -0.4750922 -0.32049635 -1.9757191
000080 1e 4c 82 bf d7 4b b4 3e 40 41 20 3f 18 97 9b bc
       -1.0179479 0.3521411 0.62599564 -0.018992946
000090 a5 0e 29 3d 99 9b 06 3e 74 57 3e c0 91 c7 23 bf
       0.04127373 0.13145293 -2.9740877 -0.6397639
0000a0 fc 71 00 3e c5 1b c6 3e bb 99 cf bf 54 25 a6 3e
       0.12543482 0.3869306 -1.621879 0.32450354
0000b0 e2 d7 71 be 17 c3 a8 bf 6d fa bd 3c 31 2c 23 bf
       -0.23617509 -1.3184537 0.023190701 -0.63739306
0000c0 83 ca f3 be c6 f5 86 3e 65 65 19 3f 66 11 38 bf
       -0.47615442 0.26359385 0.5992034 -0.7190155
0000d0 f9 17 b7 bf 6c 95 f2 bf ac cc f7 bd a6 29 92 3e
       -1.4304191 -1.895185 -0.12099585 0.285474
0000e0 72 54 77 bf fe a1 19 bf 0b 24 52 bf 2c 84 e6 3e
       -0.9661323 -0.60012805 -0.8208625 0.45022714
0000f0 fc a7 10 3f 1e be 78 be 0b e5 5d be 99 b7 3b bf
       0.56506324 -0.24291274 -0.21669404 -0.7332702
000100 0d 9b c8 3e be e4 15 3d 30 22 76 bf 4a 9d c4 3e
       0.39180794 0.0365951 -0.96145916 0.38401252
000110 41 7b c6 bf ad 2a db 3d 4a b2 f0 bf 04 50 22 be
       -1.5506364 0.10701499 -1.880441 -0.15850836
000120 76 e4 b3 bf 41 64 41 bd 6a fe 5d bf 16 2a 0c be
       -1.4054096 -0.04721475 -0.8671633 -0.1368793
000130 a7 21 e5 3e bd 39 8a bf 54 20 81 3e 9e 9a 02 bd
       0.44752237 -1.079887 0.25219977 -0.031885736
000140 18 28 dd bd 2c da 7b 3d 1f cf ee bd 17 37 e7 be
       -0.10798663 0.06148736 -0.11660599 -0.45159218
000150 99 b5 89 3e c7 f3 e0 be 0b 27 fd be 90 86 bc be
       0.2689636 -0.43935987 -0.4944385 -0.36821413
000160 3b 10 b1 bf aa 89 ed bf 10 d0 8f 3e 8e 11 aa bf
       -1.3833078 -1.8557637 0.28088427 -1.3286607
000170 5b a2 2c be a9 ee 9f 3d e4 0d 6a be 67 eb f4 3e
       -0.16858809 0.07809193 -0.22856861 0.47835848
000180 84 82 9f be 56 7a 44 3e 3f 7a 78 3d a1 d2 27 bf
       -0.31154263 0.19187292 0.060663458 -0.6555577
000190 f7 d7 58 be cd 3b 65 bf 2d 10 58 3e 21 e0 f9 bd
       -0.21176134 -0.89544374 0.2109992 -0.12200952
0001a0 93 dc 68 bd 3d 16 a1 3d 8f 53 73 bf 94 ae ac bf
       -0.05685098 0.0786557 -0.95049375 -1.3490777
0001b0 bd 31 c0 bf 43 1c 39 be 00 f9 5a 3e 29 25 b3 3e
       -1.5015179 -0.18077187 0.21384048 0.34989288
0001c0 49 1a 4f be f7 85 7a bf 5b 44 ae 3e 6a d4 08 bf
       -0.2022487 -0.97860664 0.34036526 -0.5344912
0001d0 0f bc 9c be 68 8a db be ba ce 1f be e0 16 2f 3e
       -0.30612227 -0.42879033 -0.15606204 0.1709857
0001e0 7c 2d 00 3e 8c 41 8c bd 9c 9e d0 bd 2f ef 5d 3d
       0.12517351 -0.068484396 -0.10186502 0.05418318
0001f0 6c 5a 98 bd 34 01 34 3e 46 06 d4 bf 5f ef 92 bf
       -0.074391216 0.17578584 -1.6564415 -1.14793
000200 ce 42 8c bd 2c 39 ec bf ed b1 bd 3e f6 ee 6e bf
       -0.068486795 -1.8454947 0.3704981 -0.93333375
000210 93 f6 a6 bd 9e 4f 5a 3e ae 19 dc bf da 3f 0a bd
       -0.08152499 0.21319434 -1.7195337 -0.0337523
000220 a7 6f e3 3e 8c 4e 00 be 12 40 8c bf 04 da 5b bf
       0.4442112 -0.12529963 -1.0957053 -0.8587954
000230 ab 11 3e bf b7 12 04 3c 38 d8 72 bf ec 68 f9 3d
       -0.7424571 0.008061103 -0.94861174 0.121782154
000240 82 af 4f be 06 6d c3 3e ae 40 c2 bf 9f b3 72 be
       -0.20281795 0.38169116 -1.5175989 -0.23701333
000250 77 25 06 bf 62 0a 33 bf b9 ba 81 be bd 28 a3 3e
       -0.52400917 -0.6993772 -0.2533777 0.31867018
000260 71 95 2b 3e d8 b6 1b bf 2e 57 a5 3b ae b5 86 bf
       0.16756226 -0.6082587 0.005045793 -1.0524194
000270 6c cf b6 be 98 d2 2c 3e f9 26 be bf 15 c6 c5 3d
       -0.35705125 0.1687721 -1.4855644 0.09656922
000280 fa ac 4d be a4 e6 b8 3d 68 f1 6e bf e8 b8 b6 bf
       -0.20085517 0.09028366 -0.93337107 -1.4275179
000290 c6 d7 94 3d 82 09 e5 be ce 44 89 3e 52 c4 bc 3d
       0.07267718 -0.44733816 0.26810306 0.09217133
0002a0 8f ab 89 be 02 14 90 3e cc a7 e1 3e 6f 31 16 bf
       -0.268887 0.28140265 0.4407333 -0.5866918
0002b0 17 e0 0e bf 5d de e3 be 40 92 be bf 86 83 28 3c
       -0.55810684 -0.44505587 -1.4888382 0.010285264
0002c0 3e ed 32 3e 32 9f 17 3e b3 6a f6 bd ca bf 8d be
       0.17473313 0.14806822 -0.1203207 -0.27685386
0002d0 f8 64 9f bf 33 f2 e8 be 44 1b 34 bf cb c8 14 3e
       -1.2452688 -0.45497283 -0.70354104 0.14529721
0002e0 5b b3 ef bd 2c 13 67 bf 3e 4f b1 3e bf f8 60 bf
       -0.11704131 -0.9026363 0.3463077 -0.87879556
0002f0 f0 92 a6 bf e7 e9 8b bc 61 e8 60 bf 31 8d da 3e
       -1.3013592 -0.017079307 -0.8785458 0.42685845
000300 75 3f a5 bf f3 71 30 3e 19 66 15 bf fb 6a e5 be
       -1.290999 0.17230968 -0.58358914 -0.44808182
000310 10 47 f7 be 46 3a 00 c0 39 3c e2 3e 8b 90 fe 3e
       -0.48296404 -2.0035567 0.4418657 0.49719653
000320 62 70 8a 3e 78 5c a8 3d 88 03 65 bf a0 fc 81 3e
       0.27038866 0.08220762 -0.89458513 0.2538805
000330 f8 f2 77 be 77 c2 05 bf 97 f7 60 bf 45 1f 82 be
       -0.24213779 -0.52249855 -0.8787779 -0.25414482
000340 c4 a6 55 3e fa 2a 98 bf c2 5c 75 bd e0 75 c7 3d
       0.20864397 -1.1888115 -0.059902914 0.0973928
000350 49 e4 42 3e 1f 72 26 be 16 ad 14 be 02 ea ce bf
       0.19032396 -0.16254471 -0.14519152 -1.6165164
000360 a4 e8 f5 bf 90 60 95 bd 91 01 7b 3e f0 c0 bb bf
       -1.9211621 -0.072938085 0.24512316 -1.4668255
000370 09 9d 2f be 4b 3d 48 bf 2a 1f 9b bd bf 93 fa 3e
       -0.17149748 -0.78218526 -0.075743034 0.48940846
000380 49 38 b8 be 2e 3f b2 bf 2a 65 c0 bf 76 a0 7a bf
       -0.35980442 -1.3925531 -1.5030873 -0.97901094
000390 20 d4 c7 3e 82 6d 83 3e 34 2d ac bd 59 1b fe 3c
       0.39029026 0.25669485 -0.08407059 0.0310189
0003a0 7b 65 63 be a2 ff 8e bf 14 92 f3 3e 5d 11 b8 bf
       -0.2220668 -1.1171763 0.47572386 -1.4380299
0003b0 91 ab 08 3f 0c cf de 3d 93 98 c5 bf 01 d6 d4 bf
       0.5338679 0.10879335 -1.5437187 -1.6627809
0003c0 ed ca 8e bf e4 9d b4 bf fd 4e cc be 11 a6 9d bf
       -1.1155678 -1.4110684 -0.39904013 -1.2316304
0003d0 67 8b 0d 3f ea 44 d7 bf d1 3a 0a 3e 3e ad 17 3f
       0.55290836 -1.6817906 0.13498999 0.5924872
0003e0 8a 9d 3d 3e b3 21 72 bf 4f e4 90 be 56 81 be bf
       0.18517128 -0.9458267 -0.28299186 -1.488322
0003f0 70 dd f7 3e 9e 60 fc 3e 89 1c ae bf f3 7d 79 bf
       0.4841113 0.49292463 -1.3602458 -0.9745781

l3.bias f4 [42]
000000 3b 3c f9 3e 1d 51 e7 3d a5 c5 6c be 98 dc 1b bf
       0.48678765 0.11294768 -0.2312227 -0.60883474
000010 17 28 dc 3e 18 fb cf bd 78 ab 4a 3e 72 c7 de 3e
       0.42999336 -0.10155314 0.19791973 0.4351154
000020 4d 8c 25 bd fa d7 e6 3c b3 10 10 bf 45 64 d2 3d
       -0.040417004 0.028179158 -0.5627548 0.10273031
000030 1d 19 31 bf 8b bc b8 3e 42 91 68 be 27 a0 8e be
       -0.69178945 0.36081347 -0.22711661 -0.27856562
000040 86 50 16 be cd e1 2f 3e e4 12 aa be fb 87 81 bd
       -0.14679155 0.1717598 -0.33217537 -0.06324764
000050 fa e5 d7 be 93 39 04 be a2 3e 22 bf 90 c4 d4 bd
       -0.42167646 -0.12912588 -0.6337682 -0.10389054
000060 e3 39 e7 3d bd 64 be be 83 e3 f9 bc 77 4e bb 3e
       0.11290338 -0.37186232 -0.030503994 0.365833
000070 06 f9 90 3d 90 da b2 bd fa 87 fe bd c5 dd 0c be
       0.070787475 -0.08733094 -0.12428279 -0.13756473
000080 0b b9 3a 3d d4 a8 32 bd 73 f6 fa bd 6b ce 71 bd
       0.045586627 -0.04361804 -0.12254038 -0.059034746
000090 84 d8 e6 bd 24 5f 81 3e 80 30 41 3e ec 62 46 3e
       -0.11271766 0.252679 0.18866158 0.19373673
0000a0 9f c5 af bd a6 b4 b9 3e
       -0.08582615 0.36270636
